model.pth (torch, 474773 bytes, 25 tensors)

down1.conv.0.weight f4 [16, 1, 3, 3]
0.19214395 0.24041346 -0.14291047 0.34508464 0.3228872 0.17497526 -0.2045157 0.13669255
0.34795916 0.029230624 0.23349139 0.03205526 -0.10425171 -0.14974003 -0.19764599 -0.20665252
-0.032555938 -0.12795782 0.0071816402 -0.15813492 0.07459761 0.105015144 0.25650182 -0.09899203
0.2316692 0.16308181 0.062600635 -0.05831662 -0.0014838454 -0.13830438 0.044916615 -0.25572303
0.032354634 0.31643003 -0.22841227 0.07493568 0.22646567 -0.112268396 0.27110237 0.062631354
0.03751839 -0.30930588 0.039765567 0.16734518 -0.08683238 -0.16977237 0.0363695 0.13369317
0.120554745 0.2372088 -0.08565786 -0.042517528 -0.08736048 -0.35120678 0.17007482 -0.07768131
-0.07549307 -0.22176297 -0.11754387 -0.14838454 0.31896016 0.1145804 0.3152127 -0.048204973
-0.22689159 0.27740455 0.010039666 0.16815017 -0.038110055 0.025641833 0.25694117 0.19863334
0.2208627 -0.26788324 -0.32780936 -0.062810674 -0.24646837 0.24231377 0.0046145697 0.13181545
-0.23315969 0.23520733 -0.00918675 0.2613975 -0.19089769 0.27563962 -0.08957324 -0.2226407
0.28546655 0.0057226564 0.20254993 0.03364578 -0.29448798 0.07060855 -0.16598645 0.28183421
-0.19391383 -0.19834335 0.3613232 0.18914582 0.16406487 0.18193203 -0.12415015 -0.060531598
-0.090933345 -0.14184742 0.30484828 0.1122588 0.09761449 0.020312961 0.24708535 0.10948927
0.10491828 0.060376905 0.1742233 0.017396899 0.14239779 0.22055818 0.28896067 -0.16206205
0.25442716 -0.2184629 -0.2835849 0.11286226 0.27165362 -0.29655784 -0.08965399 0.2140602
-0.18299602 0.0887706 0.14437057 0.20503083 -0.2690468 -0.30814588 0.17864119 -0.021792501
-0.032869965 0.2574151 -0.049303323 0.031131983 -0.10966799 -0.18987915 -0.19362804 -0.29928085
00000000: 62c1 443e f22e 763e 1f57 12be efae b03e
00000010: 7951 a53e b72c 333e 906c 51be 22f9 0b3e
00000020: b427 b23e 1075 ef3c 5e18 6f3e 604c 033d
00000030: ec81 d5bd 7355 19be b663 4abe b89c 53be
00000040: 6059 05bd 6007 03be f753 eb3b 1fee 21be
00000050: a2c6 983d 2e12 d73d 3554 833e 55bc cabd
00000060: b13a 6d3e ebfe 263e c334 803d 68dd 6ebd
00000070: 977d c2ba aa9f 0dbe 7cfa 373d 21ee 82be
00000080: 4b86 043d 1e03 a23e e8e4 69be e177 993d
00000090: 9ee6 673e f9ec e5bd eecd 8a3e de44 803d
000000a0: e2ac 193d 575d 9ebe 38e1 223d 895c 2b3e
000000b0: 2dd5 b1bd cfd8 2dbe 2ff8 143d dde6 083e
000000c0: 68e5 f63d dde6 723e 636d afbd dc26 2ebd
000000d0: 0dea b2bd 60d1 b3be 1828 2e3e 6117 9fbd
000000e0: 1c9c 9abd d515 63be d7ba f0bd 1ef2 17be
000000f0: bf4e a33e 21a9 ea3d 8f63 a13e 9472 45bd
00000100: 4556 68be f807 8e3e 697d 243c 8f2f 2c3e
00000110: 4a19 1cbd d20e d23c cb8d 833e 8a66 4b3e
00000120: d529 623e fe27 89be a1d6 a7be e2a2 80bd
00000130: 3462 7cbe 1a21 783e d135 973b a1fa 063e
00000140: 6ac1 6ebe 31da 703e 0684 16bc e5d5 853e
00000150: af7a 43be a320 8d3e 2d72 b7bd ecfb 63be
00000160: ac28 923e 1f85 bb3b 4069 4f3e 28d0 093d
00000170: 21c7 96be 379b 903d 5af8 29be 934c 903e
00000180: 5991 46be 851a 4bbe 5bff b83e 71af 413e
00000190: 9f00 283e 644c 3a3e 6f42 febd fbef 77bd
000001a0: 433b babd 7340 11be 1315 9c3e f1e7 e53d
000001b0: 1bea c73d 5e67 a63c f103 7d3e e93b e03d
000001c0: 65df d63d c64d 773d 9867 323e f183 8e3c
000001d0: bad0 113e 01da 613e a7f2 933e 98f3 25be
000001e0: 4744 823e bdb4 5fbe 0a32 91be 5424 e73d
000001f0: 2f16 8b3e 6ed6 97be 839c b7bd 9932 5b3e
00000200: 4f63 3bbe 5ccd b53d e1d5 133e 9af3 513e
00000210: 81c0 89be 4cc5 9dbe b7ed 363e 3086 b2bc
00000220: a8a2 06bd e9cb 833e 48f2 49bd 8008 ff3c
00000230: 9c99 e0bd ae6f 42be 6e46 46be 573b 99be

down1.conv.0.bias f4 [16]
0.09132705 -0.31803256 -0.1594163 0.100046106 0.11237143 -0.049717616 -0.1629953 -0.110274464
-0.102315426 -0.14579973 -0.11633561 -0.13399218 0.12752727 0.095679745 0.11456343 -0.23833077
00000000: ad09 bb3d 2ad5 a2be 073e 23be f9e4 cc3d
00000010: fe22 e63d b3a4 4bbd 3de8 26be 94d7 e1bd
00000020: c08a d1bd 864c 15be 5d41 eebd 3f35 09be
00000030: 8296 023e bef3 c33d 3ba0 ea3d fb0c 74be

down1.conv.2.weight f4 [16, 16, 3, 3]
-0.064955756 0.032096643 -0.06879879 -0.06874497 0.017309135 0.057029635 0.083335154 0.012634911
0.08222434 -0.049303126 -0.052949905 -0.034529924 0.011083029 -0.07518547 0.052875377 -0.034128092
0.06460906 -0.08022602 -0.014113309 0.02664597 0.12251354 0.019180134 -0.0017878584 0.107822664
0.033355184 0.04778729 0.068643786 -0.13751268 -0.0032736324 -0.10435239 -0.040864654 -0.05374441
-0.09026897 -0.14585674 -0.08227427 -0.01063716 -0.013275649 0.059791822 -0.0979928 -0.0041060406
-0.054042127 0.065133475 0.046965756 -0.07182984 0.0075389794 0.013185746 0.02983173 -0.06627317
0.020330355 0.08011297 0.019255895 0.042573594 0.06694678 0.13958788 0.02106067 -0.100831024
-0.10024742 -0.12976196 -0.05664766 -0.04225917 0.016778152 -0.1090936 0.017197303 0.014462215
0.02822917 0.03890255 0.10727883 0.0955488 0.05549892 -0.015482986 -0.04859254 -0.010807968
-0.018451802 -0.07618147 0.06624778 0.048221987 0.070157684 -0.014702733 0.07683482 0.05629366
0.02137666 0.03116614 0.041686498 0.07682266 0.10412144 0.004460736 0.043036748 0.12125918
0.04301215 0.089782365 -0.065516464 -0.0062872125 -0.057573255 -0.00148242 -0.018835146 0.018822469
0.012341847 -0.060512803 -0.038748022 0.07792639 0.07786638 0.13091555 0.0066356524 0.120827325
0.11764526 -0.014495427 0.13915913 0.09188896 -0.009248573 -0.04532654 0.047752682 0.041673254
0.019888598 0.013253426 0.059980586 -0.060173254 -0.039356638 -0.09330068 -0.043781992 0.052634727
-0.045082405 -0.04466405 -0.060851168 0.02179769 0.05252955 0.028841367 -0.10159847 0.020870866
-0.046841867 -0.08554101 -0.03173456 -0.020779148 0.011546421 -0.08131756 -0.026915114 0.028033115
0.075517334 -0.007001452 -0.06251517 0.052098744 -0.032463096 -0.0786445 -0.072585486 0.07513026
0.013776356 -0.002677472 0.077274844 0.0036275103 0.041780908 0.04527362 -0.044897277 -0.043970402
0.0889643 0.04675073 0.023749925 -0.015532345 0.025527723 -0.07315317 0.014786251 -0.015374951
0.012957513 -0.034871064 -0.012964933 -0.010899653 0.019129395 0.07725881 0.11887 0.13321054
0.0225369 -0.011684443 0.14248589 -0.029006023 -0.02059788 -0.03443307 -0.116140775 -0.10065252
-0.08101981 -0.022457873 -0.10125608 -0.00015150796 0.0072276783 0.012876089 0.056299496 0.009339934
0.021461595 0.019670911 -0.06386133 -0.0015656991 -0.078626126 0.033192534 0.05747796 -0.062736094
0.055685032 -0.0037774486 0.016044261 0.03324361 0.14394522 0.16668153 -0.099843845 0.017454494
0.014729796 -0.034640104 0.024262846 -0.034341168 0.012231273 -0.11429598 -0.02143812 -0.004331856
-0.008010231 0.05856768 -0.02485206 -0.011473866 -0.036484923 -0.019717757 0.08911329 -0.0109938085
-0.04724878 0.017859114 0.0053499816 -0.06558333 0.018651977 0.028518377 0.07070853 -0.04493324
-0.04094064 0.13438049 0.08075747 -0.013206523 0.0943784 0.109509274 0.041790064 0.08467536
0.020270659 0.01621767 -0.029324725 -0.12342694 -0.061265986 -0.096158095 0.006928363 -0.07581367
0.02484589 -0.06480019 -0.00764694 0.060206875 0.11847184 0.102178454 -0.010432471 0.004689489
-0.009192974 0.103297845 0.050361335 0.1131252 0.05133068 0.022893593 0.012800182 0.08016059
00000000: 8607 85bd c577 033d 61e6 8cbd 2aca 8cbd
00000010: e3cb 8d3c e897 693d 9fab aa3d a802 4f3c
00000020: 3c65 a83d 13f2 49bd 00e2 58bd 406f 0dbd
00000030: 9895 353c d7fa 99bd da93 583d e6c9 0bbd
00000040: c151 843d 8a4d a4bd 823b 67bc a648 da3c
00000050: 61e8 fa3d a81f 9d3c 9356 eaba 21d2 dc3d
00000060: 729f 083d 9bbc 433d 1d95 8c3d 20d0 0cbe
00000070: 708a 56bb b5b6 d5bd b261 27bd 1923 5cbd
00000080: f0de b8bd 785b 15be 6a7f a8bd 7c47 2ebc
00000090: 1c82 59bc 45e8 743d 73b0 c8bd f78b 86bb
000000a0: 475b 5dbd b364 853d 2a5f 403d 861b 93bd
000000b0: 8b09 f73b 0709 583c ac61 f43c 3aba 87bd
000000c0: d88b a63c 4512 a43d 8abe 9d3c a661 2e3d
000000d0: 651b 893d 20f0 0e3e 6d87 ac3c 7f80 cebd
000000e0: 854e cdbd 52e0 04be 6007 68bd f417 2dbd
000000f0: 5672 893c 776c dfbd 5ce1 8c3c edf2 6c3c
00000100: dc40 e73c 4858 1f3d 01b5 db3d 17af c33d
00000110: d652 633d 5aac 7dbc f908 47bd e713 31bc
00000120: 3c28 97bc 0805 9cbd ebac 873d 6b84 453d
00000130: d5ae 8f3d bbe3 70bc 935b 9d3d 2e94 663d
00000140: 1b1e af3c 2250 ff3c 76bf 2a3d 3355 9d3d
00000150: 9f3d d53d 5e2b 923b 4d47 303d bc56 f83d
00000160: 822d 303d d1df b73d 7f2d 86bd f604 cebb
00000170: efd1 6bbd c34d c2ba 2a4c 9abc 9431 9a3c
00000180: 7535 4a3c 46dc 77bd 3fb6 1ebd df97 9f3d
00000190: 6978 9f3d ba0e 063e e36f d93b 5174 f73d
000001a0: 00f0 f03d 3a7e 6dbc bb7f 0e3e 4730 bc3d
000001b0: 5487 17bc 52a8 39bd 5198 433d 93b1 2a3d
000001c0: 6aed a23c e624 593c 34ae 753d 3b78 76bd
000001d0: 6d34 21bd 6d14 bfbd bf54 33bd 8397 573d
000001e0: 54a8 38bd a7f1 36bd 133f 79bd 1291 b23c
000001f0: 3a29 573d bb44 ec3c dc12 d0bd 61f9 aa3c
00000200: 42dd 3fbd 2030 afbd 19fc 01bd 0839 aabc
00000210: 332d 3d3c d289 a6bd 167d dcbc b4a5 e53c
00000220: d5a8 9a3d 706c e5bb f407 80bd 7e65 553d
00000230: 06f8 04bd 5e10 a1bd b3a7 94bd e5dd 993d
00000240: 3ab6 613c 8778 2fbb 4642 9e3d 86bb 6d3b
00000250: 7522 2b3d d570 393d 35e6 37bd 4f1a 34bd
00000260: ea32 b63d b27d 3f3d 348f c23c 607b 7ebc
00000270: 841f d13c 54d1 95bd 0842 723c 38e7 7bbc
00000280: c04b 543c f6d4 0ebd df6a 54bc 7594 32bc
00000290: 40b5 9c3c de39 9e3d 1d72 f33d 5868 083e
000002a0: 4e9f b83c 1b70 3fbc d2e7 113e 0a9e edbc
000002b0: e3bc a8bc b109 0dbd 37db edbd e922 cebd
000002c0: b7ed a5bd 93f9 b7bc 595f cfbd 1cde 1eb9
000002d0: 29d6 ec3b 3bf6 523c 4d9a 663d 8606 193c
000002e0: 3ad0 af3c e424 a13c bbc9 82bd 2538 cdba
000002f0: bc06 a1bd e5f4 073d 026e 6b3d c87b 80bd
00000300: fd15 643d 128f 77bb 416f 833c 742a 083d
00000310: 6066 133e 90ae 2a3e ee7a ccbd bafc 8e3c
00000320: 3e55 713c c8e2 0dbd e0c2 c63c 53a9 0cbd
00000330: ad65 483c 0314 eabd ff9e afbc 3ef2 8dbb
00000340: 583d 03bc aae4 6f3d 8c96 cbbc e2fc 3bbc
00000350: 3771 15bd 2287 a1bc 0781 b63d 601f 34bc
00000360: f087 41bd 474d 923c e64e af3b 8e50 86bd
00000370: 08cc 983c 5f9f e93c a2cf 903d eb0b 38bd
00000380: 5fb1 27bd 0a9b 093e 2c64 a53d 2c60 58bc
00000390: 7649 c13d 6646 e03d 0f2c 2b3d 466a ad3d
000003a0: a70e a63c ebda 843c 683a f0bc 43c7 fcbd
000003b0: 0bf2 7abd 89ee c4bd 5207 e33b 3344 9bbd
000003c0: 9c89 cb3c f6b5 84bd 2f93 fabb 7c9b 763d
000003d0: 5da1 f23d f042 d13d f4ec 2abc 49aa 993b
000003e0: 219e 16bc d28d d33d b047 4e3d 2fae e73d
000003f0: 1e40 523d 588b bb3c dbb7 513c 3c2b a43d

down1.conv.2.bias f4 [16]
-0.049487095 -0.069880664 0.056207415 -0.045534745 -0.06407922 -0.10687316 -0.063295655 0.059781656
0.14120232 0.02361723 0.04043832 0.047530025 -0.10220893 0.1358799 -0.0102172205 0.030870628
00000000: fbb2 4abd 981d 8fbd bf39 663d a482 3abd
00000010: f73b 83bd 51e0 dabd 27a1 81bd 9cdd 743d
00000020: 5797 103e ec78 c13c a7a2 253d d8ae 423d
00000030: ea52 d1bd 1a24 0b3e 2166 27bc 66e4 fc3c

down2.conv.0.weight f4 [32, 16, 3, 3]
-0.0038670276 -0.008262188 -0.04778271 -0.07139157 -0.009211363 -0.005865768 0.07722041 0.04454226
-0.037866056 -0.076724865 0.06399244 -0.05753103 0.0044984263 -0.0044258116 0.03735246 0.0016496615
-0.07139672 -0.032884482 -0.0474723 0.07695173 0.015805542 0.012670643 -0.060556106 0.043913636
-0.0087792 0.048989847 0.026735581 0.06835633 -0.019171378 -0.081309766 0.03671964 0.06324342
0.07731626 -0.07873325 0.036580265 -0.0017873452 -0.018034149 -0.07595835 0.08097175 -0.0630313
-0.029750172 -0.046607845 0.034397926 0.022386415 -0.052454665 0.0339286 -0.024552269 0.056034572
0.039692495 0.07263313 0.009082846 0.009890717 0.0717018 0.014342408 -0.044499047 0.056624394
0.030272862 0.021597577 -0.026077347 0.081851445 0.06446197 0.07538681 0.017950129 0.0274087
-0.018385721 -0.076365426 0.048332527 -0.020279916 -0.027803943 -0.051319584 0.06331538 -0.03649079
0.022415448 -0.05023606 0.03287947 0.017329829 -0.013488337 0.042844754 0.032276914 -0.04531747
-0.11367635 0.058135122 -0.08540785 0.0038398425 -0.024587214 0.023295786 -0.009443176 0.069045216
0.0022019013 0.04913518 0.041808512 -0.042708416 -0.063406445 0.07027012 0.07807109 -0.043781094
0.059652526 -0.0061570047 0.030527277 0.054329157 0.056061137 0.051931817 0.06068234 -0.01786391
-0.003110075 0.054388102 -0.01229974 -0.047708444 0.005063097 0.083038725 -0.021541972 0.017683813
0.089874186 -0.046989866 0.03437895 0.0126355905 0.08079018 -0.092764504 0.0025849184 -0.10057747
-0.015317466 -0.030499648 -0.071742736 -0.11565796 -0.07672876 -0.05530934 0.07315449 -0.03347611
0.0264879 -0.026021365 0.09365796 0.025091274 0.0451907 -0.04507769 0.018606775 -0.041969005
-0.032031365 -0.0055811913 0.024874495 -0.07919203 0.013848645 0.051419016 -0.022769207 -0.024693696
0.019636968 -0.0868474 0.0013239987 0.021065408 0.020864319 -0.032886397 -0.02732367 -0.01425797
0.07161217 -0.005390465 -0.041456904 0.00772568 -0.03769626 0.031672098 0.031848032 -0.027611447
0.055246506 0.0424781 0.061957885 0.049093485 -0.02515689 0.036952246 0.008749149 -0.054128733
0.05147369 0.015760155 0.003450279 -0.0026864554 -0.023869121 -0.062700346 -0.07687631 0.00602973
0.062970184 0.045490485 0.018685866 0.017967476 -0.057533298 0.04892432 0.08305343 0.039387595
0.0550602 0.021313734 0.04851462 0.062137242 0.060606387 -0.05255813 0.055959325 0.030692171
0.023854248 -0.02608729 0.030791337 -0.08308075 -0.05837859 -0.08462473 0.026311986 -0.034838032
-0.01956003 0.012500111 0.04373666 -0.075666234 0.03471926 -0.07496712 -0.04672316 -0.08048656
0.039213695 0.03035536 -0.07585058 -0.07752122 0.053305373 -0.009162991 -0.037121374 -0.026329324
0.06660394 -0.0172328 0.0037926943 -0.06279318 -0.069666944 -0.012054683 -0.07769711 -0.015671771
-0.03492587 -0.08865225 0.07646129 -0.07296306 -0.06525851 0.05873878 0.007412273 -0.06331765
-0.030368268 0.067475654 -0.00024771705 -0.009502857 0.008814612 0.07141485 -0.08731054 -0.028148523
0.00068017736 -0.05561612 -0.079616085 0.04771763 0.073704354 0.029952882 0.028063841 -0.080673315
0.050530843 -0.007564283 0.0034384052 -0.068501435 -0.05232554 -0.061838776 0.040141102 -0.0159953
00000000: f56d 7dbb 215e 07bc ceb7 43bd be35 92bd
00000010: 42eb 16bc a135 c0bb bc25 9e3d f271 363d
00000020: 7019 1bbd ed21 9dbd 780e 833d a8a5 6bbd
00000030: 8967 933b 6606 91bb e5fe 183d 7439 d83a
00000040: 7238 92bd e1b1 06bd 5072 42bd de98 9d3d
00000050: a07a 813c 8798 4f3c ae09 78bd c9de 333d
00000060: a2d6 0fbc 94a9 483d 9404 db3c 67fe 8b3d
00000070: 4b0d 9dbc bc85 a6bd 5567 163d c485 813d
00000080: fd57 9e3d e63e a1bd 30d5 153d 5a45 eaba
00000090: 5abc 93bc 0d90 9bbd 84d4 a53d 8e16 81bd
000000a0: a2b6 f3bc dee7 3ebd d7e4 0c3d b763 b73c
000000b0: b4da 56bd b7f8 0a3d d721 c9bc 8284 653d
000000c0: 9994 223d aec0 943d 38d0 143c ad0c 223c
000000d0: 65d8 923d 6bfc 6a3c a244 36bd fbee 673d
000000e0: cbfe f73c 67ed b03c 29a0 d5bc bba1 a73d
000000f0: a304 843d 6664 9a3d 260c 933c 3688 e03c
00000100: a79d 96bc 7a65 9cbd 54f8 453d 1122 a6bc
00000110: 18c5 e3bc 7c34 52bd 7eab 813d 5e77 15bd
00000120: 9aa0 b73c 54c4 4dbd a0ac 063d 49f7 8d3c
00000130: 30fe 5cbc fb7d 2f3d cc34 043d d09e 39bd
00000140: 25cf e8bd 181f 6e3d 50ea aebd dea5 7b3b
00000150: 206b c9bc ced6 be3c 8db7 1abc 9467 8d3d
00000160: c64d 103b f841 493d 673f 2b3d 05ef 2ebd
00000170: 3ddb 81bd c8e9 8f3d bce3 9f3d ce53 33bd
00000180: 3556 743d b3c0 c9bb 5714 fa3c 4088 5e3d
00000190: 5da0 653d 75b6 543d 0c8e 783d 5657 92bc
000001a0: 66d2 4bbb 0fc6 5e3d d984 49bc ee69 43bd
000001b0: 56e8 a53b 3510 aa3d ca78 b0bc a5dd 903c
000001c0: f50f b83d 7278 40bd f1d0 0c3d 8205 4f3c
000001d0: 5275 a53d 51fb bdbd bc67 293b 90fb cdbd
000001e0: 1cf6 7abc 66da f9bc dbed 92bd 15de ecbd
000001f0: f823 9dbd 0c8c 62bd 05d2 953d 3f1e 09bd
00000200: 27fd d83c c22a d5bc bfcf bf3d 378c cd3c
00000210: e219 393d 62a3 38bd 3c6d 983c b1e7 2bbd
00000220: 5233 03bd 6de2 b6bb 99c5 cb3c 6e2f a2bd
00000230: 6de5 623c bf9c 523d 7d86 babc 6f4a cabc
00000240: b5dd a03c 0ddd b1bd 068a ad3a 5d91 ac3c
00000250: a6eb aa3c e3b3 06bd e4d5 dfbc 439a 69bc
00000260: 67a9 923d 7fa2 b0bb b7ce 29bd b327 fd3b
00000270: 6567 1abd 9aba 013d 1573 023d 6731 e2bc
00000280: 294a 623d 84fd 2d3d 8dc7 7d3d 4016 493d
00000290: d215 cebc 3d5b 173d 9758 0f3c 17b6 5dbd
000002a0: 13d6 523d 711b 813c 131e 623b 3e0f 30bb
000002b0: 2d89 c3bc 0a69 80bd 5471 9dbd 0b95 c53b
000002c0: 83f6 803d 3b54 3a3d 1a13 993c 8730 933c
000002d0: 09a8 6bbd de64 483d eb17 aa3d e354 213d
000002e0: ce86 613d 249a ae3c 44b7 463d 9f83 7e3d
000002f0: 673e 783d 3247 57bd 9b35 653d 266e fb3c
00000300: fc69 c33c 03b5 d5bc 1d3e fc3c 3e26 aabd
00000310: 631e 6fbd bb4f adbd 3c8c d73c 53b2 0ebd
00000320: 5b3c a0bc 44cd 4c3c 3625 333d e6f6 9abd
00000330: c835 0e3d 5d88 99bd c960 3fbd 23d6 a4bd
00000340: 8a9e 203d ceab f83c 8d57 9bbd 72c3 9ebd
00000350: bc56 5a3d 5f20 16bc 950c 18bd 98b0 d7bc
00000360: a667 883d cd2b 8dbc da8e 783b b699 80bd
00000370: 8bad 8ebd 0181 45bc aa1f 9fbd 1662 80bc
00000380: 6e0e 0fbd 508f b5bd bd97 9c3d a86d 95bd
00000390: 41a6 85bd 1398 703d a7e2 f23b afac 81bd
000003a0: e0c6 f8bc ad30 8a3d 05e0 81b9 dfb1 1bbc
000003b0: 2a6b 103c f341 923d decf b2bd bb97 e6bc
000003c0: ee4d 323a bbcd 63bd c20d a3bd 9073 433d
000003d0: 4ff2 963d bf5f f53c 24e6 e53c 0d38 a5bd
000003e0: 6ef9 4e3d cedd f7bb de56 613b 7b4a 8cbd
000003f0: 4e53 56bd a84a 7dbd ff6a 243d 9308 83bc

down2.conv.0.bias f4 [32]
-0.049632676 -0.021415878 0.07157743 0.014318365 -0.08148268 0.026847882 0.045656852 -0.010509022
0.00096675975 -0.019028815 -0.06596436 0.08578131 -0.031224584 0.06206063 0.012567301 0.054340143
-0.08318702 -0.0033802087 -0.010830996 0.029597033 -0.036480356 0.0041296375 -0.09007942 0.051973082
0.07824593 0.029791608 -0.06571879 -0.049666088 -0.0495926 0.03187794 -0.06953721 0.07377884
00000000: a24b 4bbd 5a70 afbc 3097 923d 9397 6a3c
00000010: 64e0 a6bd 17f0 db3c ae02 3b3d 082e 2cbc
00000020: 266e 7d3a 51e2 9bbc 5318 87bd 1dae af3d
00000030: b3ca ffbc 4a33 7e3d 15e7 4d3c c593 5e3d
00000040: f55d aabd 7e86 5dbb 7d74 31bc 7a75 f23c
00000050: 6d6c 15bd e951 873b 8f7b b8bd bae1 543d
00000060: 673f a03d 880d f43c 9397 86bd ab6e 4bbd
00000070: 9c21 4bbd 7192 023d 8669 8ebd 5c19 973d

down2.conv.2.weight f4 [32, 32, 3, 3]
0.03196709 0.022369625 0.02526097 0.021236645 0.009350505 0.037588593 -0.034369286 0.03326697
0.038546585 -0.053227495 -0.014075702 -0.03290716 0.03629937 -0.029944541 0.0062747514 -0.018169161
0.0040390245 -0.045799326 -0.022579864 0.011504412 0.03205329 -0.0574358 -0.036042303 0.00021229086
0.046032924 0.0069529745 0.020556606 0.004627703 -0.026098927 -0.039786723 -0.016336842 0.035051487
0.035270195 0.044399817 0.03665997 -0.004623089 0.0022434965 -0.019767666 0.00037937087 0.058048498
0.05829885 -0.016761787 -0.040173654 0.0525863 -0.01318653 -0.049800318 -0.057646308 -0.026047112
-0.036319584 -0.06562697 -0.034853242 -0.039110415 -0.026384793 -0.018559908 -0.0020502107 -0.012860343
-0.037595842 -0.03154665 0.029899167 -0.035419915 0.035616983 0.048931956 0.010835481 0.042701524
0.03703672 -0.011037187 0.053842653 -0.020783788 -0.040189784 -0.056628983 0.04442027 -0.05411444
-0.044562977 0.03290949 -0.013551667 0.03940291 -0.030615048 -0.063999996 -0.055004768 0.024776263
0.008139293 -0.054339662 0.005887074 -0.007826661 -0.03442448 -0.043351542 0.03318827 -0.01898091
0.0025404175 0.029230705 -0.028965946 -0.018226245 0.03006378 0.037011955 -0.037468705 -0.05001354
-0.058489963 -0.03226377 -0.048008706 -0.10817038 -0.07155016 -0.01701574 -0.02531745 -0.040781543
-0.04423888 -0.05249965 -0.040166825 -0.025124842 -0.008125104 -0.022424957 0.022788133 0.06631997
-0.022435647 0.04911009 -0.005053843 0.022343472 -0.04427517 0.030080978 0.0058483602 -0.047610503
0.024703952 0.02245048 -0.052061163 -0.032400884 -0.032593593 0.029833307 0.05219427 -0.032759733
0.0055084876 -0.056500837 -0.044975255 0.037381295 0.02815802 -0.02289697 -0.032362603 -0.013129998
0.031089816 0.04099117 0.029618338 0.04289482 -0.02035228 0.015938818 -0.05476582 -0.015263605
0.09014229 -0.025595723 0.008240955 0.008893847 0.07215913 -0.027134055 0.035123914 0.020079138
0.026307287 0.0563161 0.0128724985 0.020192059 0.014475652 0.016446397 -0.029730316 -0.028511334
0.058190014 -0.0040942556 0.00906725 0.05558871 0.004259369 0.0096604945 -0.011103586 0.010432821
0.054398872 -0.01664419 -0.031243127 -0.016800333 0.03524016 0.037165407 0.04423321 -0.017226748
0.018022904 -0.0663203 0.017829703 -0.022356903 -0.025529651 -0.06198531 -0.056212295 0.002917868
0.0012215226 0.043109585 -0.018828642 0.025038598 0.030473126 -0.003391374 -0.051795576 -0.021650244
0.03030564 -0.020427452 -0.009875793 -0.037802756 0.04672791 -0.024042282 0.027143402 -0.015272158
-0.058051698 0.022517858 -0.033516914 -0.008419613 0.044715732 -0.039164674 0.02106397 -0.07813237
0.024758114 -0.043084595 -0.057924516 0.0037322126 0.015130814 -0.06028937 -0.0017082044 0.01224813
0.044950448 -0.008486191 -0.05232121 -0.01012207 0.007588546 -0.06547396 0.042577926 0.028580513
-0.023411598 0.011753799 0.021297358 0.004845247 0.00030245975 0.03420773 -0.00013351905 0.058096614
-0.042674955 -0.07073376 -0.037261844 -0.0067014736 -0.050430216 -0.051158782 0.011414688 0.009203351
-0.017143548 0.020574903 0.043575678 -0.0006424133 0.037608963 -0.023395225 0.02385236 0.006822079
-0.03661136 -0.05245306 -0.00029130513 0.03749339 -0.053813923 0.023620754 0.012707111 0.0098301945
00000000: ecef 023d 8140 b73c 18f0 ce3c 79f8 ad3c
00000010: dc32 193c 7ff6 193d cfc6 0cbd f242 083d
00000020: 06e3 1d3d 1305 5abd c69d 66bc a9c9 06bd
00000030: a6ae 143d 414e f5bc 6e9c cd3b 7ed7 94bc
00000040: cb59 843b 1398 3bbd 68f9 b8bc 007d 3c3c
00000050: 504a 033d cd41 6bbd 18a1 13bd 659a 5e39
00000060: 058d 3c3d c7d5 e33b 5466 a83c fda3 973b
00000070: 6bcd d5bc 67f7 22bd d7d4 85bc 2692 0f3d
00000080: 7b77 103d 95dc 353d c428 163d 487d 97bb
00000090: a007 133b cdef a1bc 4ce6 c639 43c4 6d3d
000000a0: c6ca 6e3d 0450 89bc 218d 24bd bb64 573d
000000b0: 510c 58bc 6bfb 4bbd 891e 6cbd c160 d5bc
000000c0: d8c3 14bd 6f67 86bd 46c2 0ebd 3e32 20bd
000000d0: ec24 d8bc f30a 98bc d45c 06bb 30b4 52bc
000000e0: 19fe 19bd 0f37 01bd 19ef f43c 7914 11bd
000000f0: 1de3 113d e06c 483d 4d87 313c cbe7 2e3d
00000100: d1b3 173d 51d5 34bc 1d8a 5c3d c342 aabc
00000110: 0b9e 24bd cbf3 67bd 07f2 353d 1aa7 5dbd
00000120: ab87 36bd 1acc 063d d007 5ebc f264 213d
00000130: 69cc fabc 6e12 83bd ae4c 61bd 97f7 ca3c
00000140: ab5a 053c 4493 5ebd 5be8 c03b 653b 00bc
00000150: af00 0dbd 6391 31bd 6cf0 073d da7d 9bbc
00000160: 227d 263b 3b75 ef3c fe49 edbc 354f 95bc
00000170: 5148 f63c d999 173d c978 19bd ffda 4cbd
00000180: 2c93 6fbd 0427 04bd c7a4 44bd 6f88 ddbd
00000190: e488 92bd 9864 8bbc 8a66 cfbc 8c0a 27bd
000001a0: d433 35bd df09 57bd f885 24bd 9dd2 cdbc
000001b0: 281f 05bc 8bb4 b7bc 2eae ba3c c4d2 873d
000001c0: f6ca b7bc a927 493d b59a a5bb a809 b73c
000001d0: e159 35bd 626c f63c 9aa3 bf3b 3b03 43bd
000001e0: f15f ca3c 12ea b73c 163e 55bd cab6 04bd
000001f0: dc80 05bd fb64 f43c a9c9 553d 122f 06bd
00000200: 8b80 b43b 6c6d 67bd f937 38bd 211d 193d
00000210: a6ab e63c 6d92 bbbc a68e 04bd 341f 57bc
00000220: 12b0 fe3c 5be6 273d 28a2 f23c 7bb2 2f3d
00000230: d3b9 a6bc 2092 823c 2052 60bd 3314 7abc
00000240: 859c b83d 1fae d1bc 1205 073c 80b7 113c
00000250: 2ac8 933d 3d48 debc 18de 0f3d 017d a43c
00000260: 6182 d73c b6ab 663d 2ce7 523c d169 a53c
00000270: 492b 6d3c 98ba 863c fe8c f3bc 9a90 e9bc
00000280: a758 6e3d 1b29 86bb ce8e 143c fdb0 633d
00000290: 2d92 8b3b 0d47 1e3c d1eb 35bc 6cee 2a3c
000002a0: 5ad1 5e3d 6559 88bc 96f1 ffbc daa0 89bc
000002b0: fc57 103d c13a 183d e22d 353d 1c1f 8dbc
000002c0: c5a4 933c f0d2 87bd 990f 923c d325 b7bc
000002d0: 8f23 d1bc 4fe4 7dbd dd3e 66bd b439 3f3b
000002e0: 7f1b a03a ad93 303d 863e 9abc bf1d cd3c
000002f0: c7a2 f93c d041 5ebb 9927 54bd da5b b1bc
00000300: 8943 f83c 7957 a7bc 14ce 21bc 10d7 1abd
00000310: c465 3f3d 52f4 c4bc d75b de3c 1338 7abc
00000320: 9ec7 6dbd 5f77 b83c 0849 09bd 6bf2 09bc
00000330: d827 373d 236b 20bd 598e ac3c dd03 a0bd
00000340: 87d1 ca3c 7979 30bd 4242 6dbd 2398 743b
00000350: 3ce7 773c fdf1 76bd d4e5 dfba 61ac 483c
00000360: f61d 383d aa09 0bbc c44e 56bd 0ad7 25bc
00000370: 56a9 f83b 3617 86bd 3166 2e3d ae21 ea3c
00000380: aec9 bfbc 0293 403c cc77 ae3c e1c4 9e3b
00000390: 7693 9e39 681d 0c3d 3f01 0cb9 b7f6 6d3d
000003a0: efcb 2ebd dddc 90bd e09f 18bd 0998 dbbb
000003b0: ea8f 4ebd df8b 51bd ac04 3b3c a7c9 163c
000003c0: a070 8cbc b38c a83c 697c 323d a067 28ba
000003d0: db0b 1a3d 58a7 bfbc 0666 c33c bf8b df3b
000003e0: cbf5 15bd 05d9 56bd 50ba 98b9 ab92 193d
000003f0: fd6b 5cbd 5080 c13c 7d31 503c d30e 213c

down2.conv.2.bias f4 [32]
0.015382416 -0.037120678 -0.038079597 0.014136758 -0.03415541 -0.008497295 -0.0011880776 0.019446589
-0.060476538 -0.07364204 -0.019345054 -0.02527766 -0.0036889894 0.014234439 0.05327753 0.00054709305
0.046440773 0.03984661 -0.06532017 -0.021278808 -0.07161283 -0.0058966535 -0.047472097 0.03590014
-0.010428359 0.030343613 0.016001882 -0.042990986 -0.079595365 0.036822278 0.035694942 0.04689239
00000000: 8706 7c3c da0b 18bd 5af9 1bbd dc9d 673c
00000010: 8be6 0bbd 3d38 0bbc 45b9 9bba 744e 9f3c
00000020: 3fb6 77bd a3d1 96bd 8579 9ebc 1813 cfbc
00000030: f9c2 71bb 9037 693c 8a39 5a3d cb6a 0f3a
00000040: ae38 3e3d 3336 233d 95c6 85bd e550 aebc
00000050: bfa9 92bd b738 c1bb 1a72 42bd 060c 133d
00000060: b5db 2abc 2b93 f83c 6116 833c 5117 30bd
00000070: e502 a3bd f5d2 163d dc34 123d 3c12 403d

bottleneck.conv.0.weight f4 [64, 32, 3, 3]
-0.016335152 -0.06484445 -0.055358693 0.02653236 0.009175014 -0.053307917 -0.046997402 0.022436226
-0.012324322 0.049018897 0.031337872 -0.063669324 0.048529863 -0.052875996 0.02907487 0.009496419
-0.007104206 0.023739453 -0.07665559 -0.039026666 -0.010209348 -0.061505344 -0.02472098 -0.035328
-0.025176724 -0.030507363 0.03831685 -0.028519953 0.0049559344 -0.033868875 -0.06251642 0.053944413
-0.04151197 0.03827247 0.011578371 0.06723687 -0.008597029 0.03240423 0.008141044 -0.058458716
0.013224836 -0.04102993 -0.051396657 -0.009777804 -0.05532091 0.0037844684 -0.025838422 -0.021575067
0.036910217 -0.021932496 -0.05828868 -0.0055838837 0.05259386 -0.050808404 -0.038535938 -0.010261966
-0.048249025 0.010508338 -0.020840706 -0.04407283 -0.05209297 -0.061324418 -0.03820478 -0.018600434
-0.04376418 0.004374317 0.015388416 -0.048588447 -0.05680875 -0.07066333 -0.05661989 0.015751587
-0.05394181 0.040308844 -0.06045974 -0.008113983 -0.02881967 -0.0021817894 0.048475705 0.001828879
0.03217879 0.010155785 -0.0035261796 0.031433918 0.018253794 -0.028403549 0.030959815 -0.037953436
-0.027443308 -0.023405796 0.004265359 0.040809333 0.0046372768 -0.031707566 -0.023295505 0.034266744
0.006149403 0.029663185 -0.049947392 -0.04053176 0.021720167 0.026758304 -0.056639504 0.059611417
0.011016992 -0.04463273 -0.022807099 0.03321793 -0.031642254 0.024194054 0.0035763092 -0.018699063
0.0037660755 -0.007722823 0.03574776 -0.009528376 -0.04524168 0.0008401732 -0.010664091 0.043940447
0.0057321745 -0.03669725 -0.046723492 -0.04064949 0.020554468 0.016378887 -0.0067621763 -0.027809903
-0.029515661 0.02182218 0.023690164 0.017670559 0.038874485 0.022142163 0.06167166 -0.006771608
0.037758823 0.0139184175 -0.013569589 0.05410116 -0.02264587 0.032461565 0.04363267 0.04712997
0.007458026 -0.07497143 0.043408148 0.018161193 0.011511532 0.063690245 0.04063046 0.028137268
0.030154416 -0.057240587 0.030909885 0.053440258 0.039994974 -0.052517716 -0.023337737 -0.042101257
-0.027990477 -0.042172156 -0.057663158 0.015069642 0.05565184 -0.025896613 0.0012182995 -0.051586024
-0.040772147 0.012041411 -0.035698447 -0.07249679 -0.012918397 -0.016527139 -0.012681252 -0.0045907367
-0.008849029 -0.01776618 -0.032326095 -0.003847547 0.0241472 -0.0024886255 -0.021424461 0.001689458
-0.020937977 -0.016147261 0.043038737 0.058221765 0.032606773 -0.057010036 -0.014654206 -0.027904121
-0.05004771 0.0056090485 0.02406128 0.024722474 -0.022481754 -0.00863545 0.038946364 0.038753357
0.034296513 -0.010120769 0.038153984 -0.010404815 0.0392238 -0.043932192 0.033611953 0.016908674
-0.045625377 -0.039791048 0.035127863 -0.00692893 -0.007509249 -0.021705456 -0.0022059046 0.056396473
0.044404324 -0.012132837 0.023427045 0.03171498 -0.063345455 -0.00022100663 -0.021173831 -0.040781934
0.012226012 0.010509145 -0.07113197 -0.013716479 -0.037148695 0.0052011106 0.008305968 0.028002374
0.030170681 0.008311239 -0.035146035 0.016773187 0.011919524 -0.020305883 0.0061439103 0.04951542
0.03406051 0.007782911 -0.03787482 -0.05378333 -0.0034469496 -0.055899885 -0.056419045 -0.046291623
0.034826234 -0.012668474 0.043003194 -0.043584242 -0.03778075 -0.011416374 0.039568294 0.026090764
00000000: 4cd1 85bc 2bcd 84bd ccbf 62bd 645a d93c
00000010: cc52 163c 6759 5abd 5980 40bd 2dcc b73c
00000020: f4eb 49bc 0ac8 483d 245c 003d 1065 82bd
00000030: 40c7 463d 8094 58bd 6c2e ee3c de96 1b3c
00000040: 66ca e8bb 3e79 c23c 9bfd 9cbd 6dda 1fbd
00000050: 1c45 27bc 07ed 7bbd a783 cabc 18b4 10bd
00000060: 6b3f cebc 94ea f9bc 21f2 1c3d ada2 e9bc
00000070: 6465 a23b 17ba 0abd 9c08 80bd d1f4 5c3d
00000080: 7508 2abd 98c3 1c3d 35b3 3d3c 7cb3 893d
00000090: 8eda 0cbc 4cba 043d 0362 053c 6872 6fbd
000000a0: fcac 583c 000f 28bd 4d85 52bd 1533 20bc
000000b0: 2e98 62bd d804 783b 19ab d3bc 32be b0bc
000000c0: 2b2f 173d c7ab b3bc 1cc0 6ebd 03f9 b6bb
000000d0: a96c 573d 791c 50bd dcd7 1dbd ce21 28bc
000000e0: c5a0 45bd 2a2b 2c3c 21ba aabc b685 34bd
000000f0: 705f 55bd 502f 7bbd 9e7c 1cbd f05f 98bc
00000100: 1242 33bd 6e56 8f3b b21f 7c3c ae04 47bd
00000110: 4bb0 68bd f0b7 90bd 42ea 67bd 7909 813c
00000120: 16f2 5cbd e31a 253d a2a4 77bd 83f0 04bc
00000130: 3b17 ecbc 5afc 0ebb 768e 463d ffb6 ef3a
00000140: e8cd 033d 7364 263c 7a17 67bb dac0 003d
00000150: fb88 953c 8fae e8bc 709f fd3c 1075 1bbd
00000160: cad0 e0bc 83bd bfbc 6dc4 8b3b b027 273d
00000170: 4cf4 973b cbdf 01bd 37d6 bebc 495b 0c3d
00000180: ee80 c93b 3500 f33c a395 4cbd a104 26bd
00000190: 7eee b13c 3b34 db3c d3fe 67bd 1a2b 743d
000001a0: 9d80 343c cfd0 36bd f4d5 babc 860f 083d
000001b0: 4f9b 01bd 9c32 c63c 8360 6a3b c72e 99bc
000001c0: 43d0 763b bc0f fdbb 3e6c 123d e81c 1cbc
000001d0: 574f 39bd 123f 5c3a 71b8 2ebc e6fa 333d
000001e0: f7d4 bb3b db4f 16bd 2261 3fbd 1480 26bd
000001f0: d861 a83c 042d 863c 3f95 ddbb 98d1 e3bc
00000200: d4ca f1bc 6ec4 b23c e011 c23c d9c1 903c
00000210: da3a 1f3d 7b63 b53c 6c9b 7c3d 5de4 ddbb
00000220: ffa8 1a3d 130a 643c fb52 5ebc 2e99 5d3d
00000230: d583 b9bc 6bf6 043d 2cb8 323d 5b0b 413d
00000240: 7562 f43b 9f8a 99bd becc 313d c8c6 943c
00000250: dd9a 3c3c 0870 823d 206c 263d 2180 e63c
00000260: 6506 f73c 1b75 6abd ba36 fd3c 2ce4 5a3d
00000270: c5d1 233d d11c 57bd c82e bfbc 5e72 2cbd
00000280: 494c e5bc b6bc 2cbd 3430 6cbd a9e6 763c
00000290: 2ff3 633d 2225 d4bc 59af 9f3a de4b 53bd
000002a0: b200 27bd 5749 453c 8938 12bd 3279 94bd
000002b0: afa7 53bc ec63 87bc 07c5 4fbc e46d 96bb
000002c0: 85fb 10bc 618a 91bc 5e68 04bd 2127 7cbb
000002d0: 59d0 c53c 3518 23bb 5a82 afbc ce70 dd3a
000002e0: 1f86 abbc 4347 84bc 6349 303d f279 6e3d
000002f0: ae8e 053d 5b83 69bd 3218 70bc 2f97 e4bc
00000300: d4fe 4cbd 1ccc b73b 291c c53c c986 ca3c
00000310: a82b b8bc b47b 0dbc 3986 1f3d d7bb 1e3d
00000320: 807a 0c3d 95d1 25bc 5a47 1c3d f578 2abc
00000330: 23a9 203d 3ef2 33bd b0ac 093d 0f84 8a3c
00000340: ade1 3abd f0fb 22bd 3ce2 0f3d 140c e3bb
00000350: 2510 f6bb a4cf b1bc f090 10bb fdff 663d
00000360: 4fe1 353d cfc8 46bc 13ea bf3c 91e7 013d
00000370: 43bb 81bd 04be 67b9 be74 adbc f50a 27bd
00000380: 9c4f 483c 8d2e 2c3c a3ad 91bd 15bb 60bc
00000390: 3b29 18bd 146e aa3b c115 083c 3c65 e53c
000003a0: 8128 f73c dd2b 083c 4af5 0fbd ec67 893c
000003b0: 1b4a 433c 8658 a6bc db52 c93b aed0 4a3d
000003c0: 0983 0b3d ca07 ff3b a122 1bbd e94b 5cbd
000003d0: 38e6 61bb 47f7 64bd a817 67bd 499c 3dbd
000003e0: f4a5 0e3d 6e8f 4fbc 1e24 303d 6485 32bd
000003f0: fdbf 1abd be0b 3bbc 5d12 223d 4cbc d53c

bottleneck.conv.0.bias f4 [64]
0.041568607 -0.04353665 0.017258994 0.051271718 -0.016922574 -0.016231582 0.071901806 -0.024004381
-0.05879985 -0.023247963 0.031714052 -0.009775393 0.052530047 -0.016201448 -0.03101145 0.04854928
0.013086558 -0.016651269 0.035236787 0.027845396 -0.05925552 0.04864388 -0.059218492 0.01454088
-0.040316034 -0.053586982 0.039603457 0.049450498 -0.031962477 0.038362697 0.015680451 0.036333494
-0.034841854 0.029319154 -0.04168983 -0.043803383 -0.053272046 -0.017130077 0.051288027 -0.037192624
0.001513214 -0.017210588 0.00038474047 -0.03972278 -0.01593451 -0.019426852 -0.009850109 0.034209423
0.04707321 0.015249812 0.0010573544 0.027092954 -0.009014321 0.040976446 0.026629074 0.022185918
-0.032619715 0.00504554 0.042444315 0.034347862 -0.033786833 -0.05159061 0.007287203 0.031629495
00000000: d843 2a3d 7c53 32bd bc62 8d3c 4b02 523d
00000010: 36a1 8abc 18f8 84bc 4141 933d d6a4 c4bc
00000020: 1dd8 70bd 8372 bebc 98e6 013d f828 20bc
00000030: bf29 573d e6b8 84bc b90b febc 9cdb 463d
00000040: 0169 563c 3e68 88bc 7354 103d 071c e43c
00000050: ebb5 72bd ce3e 473d 178f 72bd df3c 6e3c
00000060: 6d22 25bd 067e 5bbd 3c37 223d 9b8c 4a3d
00000070: 16eb 02bd 3422 1d3d 4a74 803c 6ed2 143d
00000080: 55b6 0ebd b92e f03c f5c2 2abd 2d6b 33bd
00000090: ca33 5abd 6054 8cbc 6513 523d 4b57 18bd
000000a0: 0957 c63a 38fd 8cbc feb6 c939 5bb4 22bd
000000b0: 1789 82bc 1025 9fbc 5a62 21bc 2e1f 0c3d
000000c0: d7cf 403d 59da 793c ed96 8a3a 0bf2 dd3c
000000d0: cdb0 13bc ebd6 273d 3725 da3c 3ebf b53c
000000e0: 409c 05bd 0f55 a53b 17da 2d3d 58b0 0c3d
000000f0: 1064 0abd ad50 53bd 7dc9 ee3b ee8d 013d

bottleneck.conv.2.weight f4 [64, 64, 3, 3]
0.0072483355 0.03622928 -0.031831276 0.02425101 0.029374272 -0.02711123 -0.028130965 -0.010363922
3.0449126e-05 -0.0032286365 -0.036545873 -0.033933498 -0.00066174514 0.01201281 -0.0009169698 0.0015762792
-0.004835876 0.03973664 0.008509007 -0.011427243 -0.054218546 -0.034818687 -0.013204222 -0.00046909356
0.009744351 -0.0328013 -0.04592674 -0.008915077 -0.045789704 -0.055778045 -0.0072283773 -0.046959292
0.0030175392 -0.035565685 -0.047611553 -0.05090787 0.010236331 -0.023614462 -0.0014390929 -0.013314262
-0.021781325 -0.012921332 -0.03874902 0.03425325 -0.02449366 0.02607682 -0.024858065 0.0022404916
0.027102312 0.02808062 -0.023582114 -0.034249492 0.0022874447 -0.013202829 -0.010877874 -0.011071112
0.018759333 -0.02618489 -0.015337303 -0.028587567 -0.0073030926 0.016481956 -0.006398647 0.023640595
-0.010586256 -0.009940413 -0.025997993 0.046840232 0.034814954 -0.007896424 -0.026555307 -0.013603354
-0.014661664 -0.014942334 -0.0041259625 -0.011007391 -0.027262352 0.003866435 -0.014402289 -0.011450891
-0.011718245 0.046229832 -0.002467045 0.020094035 -0.013731783 0.04733329 0.043368015 -0.011473223
0.03934139 0.06895122 0.028744439 -0.010943396 -0.037256975 0.051775407 0.039858755 0.004791367
0.014677459 -0.024495104 0.0018481346 0.02682029 0.039784692 0.024025893 0.009692839 0.035110056
-0.020880612 -0.006121924 0.04849354 0.058926027 -0.013407954 0.05287065 -0.016747529 0.002380602
-0.008376749 0.034334984 -0.017370442 -0.013416936 0.047923964 0.037088238 0.057953026 0.060913216
0.027153086 0.040172044 0.0036569168 0.019163426 0.0073003164 -0.011441792 0.0026767408 -0.011970002
-0.018790424 0.009060199 -0.01615756 -0.016795646 -0.02652013 0.028536957 0.026327053 -0.019469352
-0.0035496887 -0.039404705 -0.011092699 -0.040121697 -0.037467193 0.0052268887 0.021046307 -0.011672221
0.016885925 -0.014264341 -0.002847143 0.035653964 -0.029333167 0.012960685 0.008056318 -0.020953778
-0.015395132 0.020283118 -0.0037829108 -0.012609782 -0.011793514 0.0022372701 0.0032795556 -0.01959704
-0.01065442 0.01245578 -0.01687478 0.017991787 0.01599408 0.0015931263 -0.01744021 -0.0016904194
0.019209929 -0.0036327224 0.0035159127 -0.036829364 -0.004094155 -0.033973604 0.021475574 -0.02374598
0.02552385 0.015782757 -0.01164317 0.0084744375 0.012106889 -0.016713874 -0.0084257815 0.006864183
-0.008030717 -0.026193112 -0.037110403 -0.024677983 0.03883802 0.020040516 0.06321177 0.021694679
0.011743549 0.071067356 0.057224393 0.022557743 0.024561776 0.02114753 0.005609967 -0.024189875
0.013160863 -0.04899527 0.020604353 -0.05688017 0.004642045 0.0059048655 -0.03989458 -0.02588674
0.02960619 -0.007023841 0.016631227 0.003195652 -0.027470283 -0.011651774 0.013672702 0.03057165
-0.00551425 0.015801795 -0.004712306 -0.01213555 -0.019329015 0.022799974 0.0053234966 0.01063897
0.015068948 -0.04927802 -0.0043315096 0.021964107 -0.0047089667 -0.022318734 -0.0046410714 0.006247992
-0.028766349 0.029950803 0.0053032706 -0.0055176923 0.010008839 -0.009202454 -0.026337216 0.021698061
-0.030676013 -0.010632984 -0.02986456 0.035471503 -0.007026878 0.0020815616 -0.016252935 0.016810028
0.031009227 -0.029177703 -0.038920123 -0.015731176 -0.043861832 -0.04001559 -0.024147812 -0.009375114
00000000: 7283 ed3b 2765 143d 8361 02bd 0eaa c63c
00000010: 50a2 f03c 5f18 debc e972 e6bc 71cd 29bc
00000020: 006d ff37 8897 53bb 20b1 15bd dafd 0abd
00000030: f778 2dba 61d1 443c cd60 70ba 279b ce3a
00000040: 4576 9ebb e3c2 223d 5d69 0b3c 5539 3bbc
00000050: 4414 5ebd 0a9e 0ebd 8556 58bc acf0 f5b9
00000060: c5a6 1f3c a85a 06bd ad1d 3cbd 8b10 12bc
00000070: fc8d 3bbd 8577 64bd 06dc ecbb 6358 40bd
00000080: e8c1 453b 53ad 11bd 5504 43bd c584 50bd
00000090: 49b6 273c 1e73 c1bc f29f bcba 1024 5abc
000000a0: c06e b2bc ffb3 53bc 4bb7 1ebd 234d 0c3d
000000b0: eea6 c8bc 0e9f d53c 24a3 cbbc 36d5 123b
000000c0: ab05 de3c 5409 e63c 472f c1bc 3249 0cbd
000000d0: f4e8 153b ae50 58bc 1c39 32bc 9c63 35bc
000000e0: 2cad 993c b281 d6bc 5049 7bbc 7930 eabc
000000f0: c84e efbb 2b05 873c beab d1bb eca9 c13c
00000100: fa71 2dbc 1ddd 22bc bef9 d4bc 8bdb 3f3d
00000110: 209a 0e3d 0160 01bc 848a d9bc 9ae0 5ebc
00000120: 7a37 70bc b1d0 74bc 1533 87bb 5858 34bc
00000130: 4c55 dfbc 0464 7d3b 94f7 6bbc 859c 3bbc
00000140: e2fd 3fbc 7e5b 3d3d 26ae 21bb 3f9c a43c
00000150: 46fb 60bc 8de0 413d a9a2 313d 2ffa 3bbc
00000160: 7024 213d 4c36 8d3d 7579 eb3c ee4b 33bc
00000170: c59a 18bd 7312 543d ef42 233d e600 9d3b
00000180: ba79 703c f5a9 c8bc 1b3d f23a 3ab6 db3c
00000190: 46f5 223d f3d1 c43c b7ce 1e3c 90cf 0f3d
000001a0: d10d abbc 6c9a c8bb 2aa1 463d 6b5c 713d
000001b0: 09ad 5bbc e58e 583d 1d32 89bc e003 1c3b
000001c0: a23e 09bc d7a2 0c3d 754c 8ebc b5d2 5bbc
000001d0: eb4b 443d d6e9 173d 2760 6d3d 2380 793d
000001e0: 2670 de3c 718b 243d e2a8 6f3b 9efc 9c3c
000001f0: 7e37 ef3b 5b76 3bbc 426c 2f3b d41d 44bc
00000200: 60ee 99bc 3b71 143c dc5c 84bc 0697 89bc
00000210: be40 d9bc 56c6 e93c d5ab d73c 317e 9fbc
00000220: e5a1 68bb d466 21bd 27be 35bc a656 24bd
00000230: 3377 19bd 5246 ab3b 4e69 ac3c d83c 3fbc
00000240: 5a54 8a3c fcb4 69bc 2297 3abb e409 123d
00000250: 1c4c f0bc 0e59 543c a6fe 033c 42a7 abbc
00000260: dd3b 7cbc c828 a63c b6ea 77bb 4299 4ebc
00000270: 9539 41bc 2a9f 123b d0ed 563b f989 a0bc
00000280: e08f 2ebc 5413 4c3c fb3c 8abc 8363 933c
00000290: 0406 833c 73d0 d03a c5de 8ebc 1091 ddba
000002a0: 245e 9d3c f812 6ebb 3a6b 663b 63da 16bd
000002b0: 4328 86bb e827 0bbd 8bed af3c ee86 c2bc
000002c0: 6517 d13c d74a 813c ffc2 3ebc 5ed8 0a3c
000002d0: f95b 463c 89eb 88bc 4a0c 0abc f1ec e03b
000002e0: 4593 03bc f092 d6bc 1401 18bd 7b29 cabc
000002f0: 9e14 1f3d 022c a43c 2c75 813d 0ab9 b13c
00000300: 0468 403c c38b 913d 2064 6a3d 04cb b83c
00000310: c735 c93c 963d ad3c d0d3 b73b d829 c6bc
00000320: a9a0 573c 44af 48bd 76ca a83c 2efb 68bd
00000330: 4c1c 983b 9a7d c13b 8068 23bd 6e10 d4bc
00000340: ae88 f23c 4028 e6bb 363e 883c 256e 513b
00000350: 5c09 e1bc 15e7 3ebc 7803 603c 6671 fa3c
00000360: e2b0 b4bb c472 813c b069 9abb 30d4 46bc
00000370: e257 9ebc 03c7 ba3c ba70 ae3b 134f 2e3c
00000380: c0e3 763c c0d7 49bd 56ef 8dbb 12ee b33c
00000390: ad4d 9abb c7d5 b6bc 2114 98bb f5bb cc3b
000003a0: 68a7 ebbc 635b f53c 0fc7 ad3b c2cd b4bb
000003b0: 1dfc 233c e4c5 16bc 25c1 d7bc 22c0 b13c
000003c0: 434c fbbc f835 2ebc 86a6 f4bc 914a 113d
000003d0: ba41 e6bb cf6a 083b e024 85bc 2fb5 893c
000003e0: 1007 fe3c 1406 efbc b56a 1fbd abde 80bc
000003f0: 77a8 33bd 63e7 23bd a2d1 c5bc 149a 19bc

bottleneck.conv.2.bias f4 [64]
0.0012103623 -0.017299494 -0.048766594 -0.027320847 0.03240693 0.048372377 0.006783353 0.024959078
-0.028860036 0.018258285 -0.023583392 -0.026688721 -0.019655434 0.01835194 0.017712818 0.0050605806
-0.013363389 -0.025796771 -0.048230227 -0.0033371558 0.022280794 0.008365425 -0.024138425 0.023247372
-0.041890465 -0.02683176 0.011328031 -0.012472756 0.009679962 -0.009885933 0.0028114442 0.020012487
0.021662263 0.014178754 -0.006474982 0.02350815 0.025604675 -0.020058846 -0.031751793 -0.03451648
-0.007233213 0.004300121 0.0012508734 -0.0049301656 0.023184737 -0.022049496 0.011034147 -0.007882909
0.0027124688 -0.0013538293 0.009138612 -0.049085174 0.015681002 -0.051048253 0.013667051 0.0031718863
0.025196271 0.0049008797 -0.021901416 -0.039824653 -0.017815627 0.032336492 0.024132084 -0.05257119
00000000: 05a5 9e3a abb7 8dbc 7bbf 47bd f8cf dfbc
00000010: 21bd 043d 1d22 463d e446 de3b fb76 cc3c
00000020: e26b ecbc 6692 953c f531 c1bc 4ea2 dabc
00000030: 6f04 a1bc cf56 963c 791a 913c 3ad3 a53b
00000040: 1ef2 5abc c053 d3bc 0f8d 45bd 2fb4 5abb
00000050: 3686 b63c 230f 093c f2bd c5bc 4671 be3c
00000060: 5695 2bbd 47ce dbbc 3599 393c 885a 4cbc
00000070: b498 1e3c 9cf8 21bc 3540 383b 3af1 a33c
00000080: 0f75 b13c 014e 683c 162c d4bb 2a94 c03c
00000090: e5c0 d13c 7352 a4bc 2b0e 02bd 2761 0dbd
000000a0: 9704 edbb 08e8 8c3b 59f4 a33a 3a8d a1bb
000000b0: ebed bd3c 25a1 b4bc 91c8 343c 5127 01bc
000000c0: adc3 313b f972 b1ba 1eba 153c 890d 49bd
000000d0: 7275 803c f917 51bd c4eb 5f3c 6cdf 4f3b
000000e0: 6968 ce3c 8f97 a03b 996a b3bc 2d1f 23bd
000000f0: 14f2 91bc 4573 043d a6b0 c53c e354 57bd

up2.weight f4 [64, 32, 2, 2]
0.07582858 0.09817331 0.08967998 -0.04653387 -0.052980237 -0.062056195 -0.04553109 0.0050826687
-0.053788006 0.07555266 -0.021056058 0.008915661 -0.06899129 0.067397684 0.045076977 0.013630076
-0.0776652 0.07657929 0.097653106 -0.038770474 -0.057365302 -0.004284949 -0.069737054 -0.0029649131
0.050831452 0.024419032 0.01671905 0.085596524 0.016365446 0.01594793 0.086992376 0.10015465
0.031845808 -0.025072265 0.044310275 -0.06481675 0.0051085223 0.09789377 0.025698597 0.021405581
-0.021762945 -0.012185935 0.11020473 -0.0007240393 -0.03269928 -0.024770256 0.051771652 -0.033460524
-0.117238976 -0.03847589 -0.014508195 -0.056806132 0.051306877 -0.06346638 -0.08085679 -0.008011154
0.047693644 0.056489073 -0.017809039 -0.012900443 0.073319934 0.01939251 0.030180033 -0.042454585
-0.0030008713 -0.09650455 -0.043880202 0.06778522 -0.026126966 0.042060617 0.06523821 0.00878316
-0.05409644 -0.012781029 0.05000724 -0.08455775 0.0035935827 -0.060876507 -0.0011927121 -0.109367624
0.026230095 -0.054889597 -0.023780188 0.025789998 0.06501725 0.010331869 0.040302105 0.05051966
0.039825898 -0.08439058 0.015508334 -0.027879009 0.011877907 0.029291678 -0.010691799 -0.07284433
0.012360533 0.045905747 -0.09530572 0.026152423 0.024092562 0.08431437 0.02909706 0.09683859
-0.051333345 0.041603766 0.10250032 -0.0026638117 -0.07135968 -0.011223365 0.03294798 -0.026336234
0.045194153 0.05224573 -0.06300746 -0.0403235 -0.04298124 0.009549785 -0.10871849 0.018652035
-0.021766039 0.03027324 0.11282398 0.022078913 0.10172566 0.0004904568 -0.058198895 0.03311217
-0.0716367 -0.040705644 -0.07346635 0.08746102 -0.03511696 -0.020526702 0.017979726 -0.059577946
-0.015149911 0.010037059 0.04922642 0.014379865 -0.018079532 0.012335107 -0.00010552583 -0.018137133
0.078681454 -0.019721042 0.027654434 -0.038796775 -0.06609651 -0.014675727 0.008295944 -0.0412083
-0.059718568 -0.07059659 -0.030973103 -0.04231889 -0.034573164 0.051737644 0.081128605 -0.04284759
0.057552394 -0.07994699 -0.029095644 0.012603843 0.05232663 0.01881972 0.036756124 0.057465386
0.017914234 0.0743076 -0.008902869 -0.039150663 0.0119226 -0.08528193 -0.07275633 0.02194116
0.059214808 -0.02247746 -0.054206215 0.044446062 -0.030022483 -0.04512921 -0.036105026 -0.029135764
0.08744061 0.025715938 0.019157458 0.08151255 0.061812755 0.024564778 -0.049167473 -0.028204082
-0.010792802 -0.009615149 -0.007552262 0.07064209 0.05670678 0.013230118 0.05525579 0.07021323
0.07824069 -0.09450387 0.05627548 -0.048502 0.07175291 -0.014263395 0.080833144 0.0710611
0.06883216 -0.012932391 -0.04636429 0.027325833 0.027018989 0.056300968 0.077880844 -0.009581187
-0.080623545 0.09078449 0.011065711 -0.08282734 0.022219323 0.022118451 -0.074017316 -0.060500056
-0.06918119 0.06627256 0.08883036 -0.06397051 0.048400402 -0.06911028 -0.029459476 0.08325501
-0.035952456 -0.032209106 -0.060009826 0.076065354 0.081039995 -0.08890888 -0.07470678 0.0075687114
0.02547794 0.039587803 -0.07156439 0.0091905 0.04923973 0.091989666 0.03980768 0.07244644
0.06398931 0.04630809 0.05097545 -0.020715753 0.066151604 -0.068638325 0.06019305 0.0035277987
00000000: 044c 9b3d 170f c93d 23aa b73d 4d9a 3ebd
00000010: ce01 59bd a32e 7ebd cf7e 3abd 848c a63b
00000020: d050 5cbd 5abb 9a3d c17d acbc fe12 123c
00000030: 4e4b 8dbd cc07 8a3d a3a2 383d af50 5f3c
00000040: ef0e 9fbd 9ad5 9c3d 5afe c73d cacd 1ebd
00000050: e1f7 6abd c268 8cbb 4dd2 8ebd fd4e 42bb
00000060: a434 503d 6c0a c83c 64f6 883c 3b4d af3d
00000070: d410 863c 3ca5 823c 0f29 b23d e21d cd3d
00000080: c070 023d 5a64 cdbc b17e 353d a5be 84bd
00000090: 6465 a73b 877c c83d dd85 d23c c25a af3c
000000a0: 3448 b2bc 84a7 47bc 04b3 e13d 74cd 3dba
000000b0: aeef 05bd feea cabc 830e 543d e70d 09bd
000000c0: fd1a f0bd e598 1dbd c8b3 6dbc 8cad 68bd
000000d0: 2927 523d a9fa 81bd 3f98 a5bd 3741 03bc
000000e0: 695a 433d 1661 673d 43e4 91bc 615c 53bc
000000f0: c328 963d 0bdd 9e3c 1e3c f73c dce4 2dbd
00000100: 44aa 44bb 2da4 c5bd babb 33bd fad2 8a3d
00000110: 3808 d6bc c147 2c3d 9c9b 853d 3ee7 0f3c
00000120: 3b94 5dbd 8567 51bc 64d4 4c3d 9d2c adbd
00000130: 5082 6b3b a559 79bd c754 9cba 22fc dfbd
00000140: 7fe0 d63c ead3 60bd abce c2bc 8c45 d33c
00000150: c427 853d 0047 293c d213 253d b4ed 4e3d
00000160: 7b20 233d f8d4 acbd ab16 7e3c 8562 e4bc
00000170: 8e9b 423c 1af5 ef3c a82c 2fbc 682f 95bd
00000180: d583 4a3c aa07 3c3d a52f c3bd 9b3d d63c
00000190: c45d c53c 03ad ac3d f55c ee3c 5053 c63d
000001a0: ea42 52bd b668 2a3d b0eb d13d 5893 2ebb
000001b0: 0625 92bd 34e2 37bc 76f4 063d 16bf d7bc
000001c0: 811d 393d 9eff 553d 0e0a 81bd 412a 25bd
000001d0: 190d 30bd b476 1c3c cda7 debd 27cc 983c
000001e0: b14e b2bc 96ff f73c 4210 e73d d6de b43c
000001f0: 8b55 d03d 0092 003a f761 6ebd a0a0 073d
00000200: 43b6 92bd f6ba 26bd 8775 96bd c31e b33d
00000210: cdd6 0fbd 9d27 a8bc 384a 933c 0108 74bd
00000220: 5537 78bc 7a72 243c a4a1 493d 8699 6b3c
00000230: 871b 94bc 3019 4a3c c04d ddb8 5394 94bc
00000240: be23 a13d 068e a1bc 8d8b e23c 5ee9 1ebd
00000250: 9b5d 87bd 7672 70bc b6eb 073c 09ca 28bd
00000260: 759b 74bd f294 90bd 4ebb fdbc 9356 2dbd
00000270: 979c 0dbd daea 533d c126 a63d f480 2fbd
00000280: 0fbc 6b3d 3fbb a3bd fd59 eebc 5980 4e3c
00000290: 7354 563d d02b 9a3c 978d 163d d360 6b3d
000002a0: dfc0 923c 952e 983d 57dd 11bc 725c 20bd
000002b0: 0257 433c 4ba8 aebd 4501 95bd f3bd b33c
000002c0: 3a8b 723d a622 b8bc 5607 5ebd 130d 363d
000002d0: b6f1 f5bc 68d9 38bd dde2 13bd 20ae eebc
000002e0: 1014 b33d 3baa d23c 1af0 9c3c 0df0 a63d
000002f0: 5f2f 7d3d 133c c93c d563 49bd 3f0c e7bc
00000300: 4bd4 30bc dc88 1dbc f778 f7bb cdac 903d
00000310: 5e45 683d 23c3 583c e553 623d f4cb 8f3d
00000320: a83c a03d 3f8b c1bd 1e81 663d 08aa 46bd
00000330: 31f3 923d 04b1 69bc d98b a53d 7b88 913d
00000340: e0f7 8c3d 61e2 53bc 7be8 3dbd 6dda df3c
00000350: ed56 dd3c d89b 663d fe7f 9f3d 69fa 1cbc
00000360: f51d a5bd 38ed b93d f54c 353c 61a1 a9bd
00000370: 4c05 b63c c131 b53c 6496 97bd e8ce 77bd
00000380: deae 8dbd e8b9 873d b1ec b53d f902 83bd
00000390: 803f 463d b189 8dbd 0055 f1bc 9a81 aa3d
000003a0: e242 13bd b2ed 03bd ddcc 75bd 27c8 9b3d
000003b0: 4cf8 a53d dc15 b6bd deff 98bd f402 f83b
000003c0: 1db7 d03c d226 223d 5a90 92bd c093 163c
000003d0: 99af 493d 1465 bc3d 610d 233d cd5e 943d
000003e0: d40c 833d 8dad 3d3d a2cb 503d 15b4 a9bc
000003f0: 7e7a 873d 4092 8cbd fd8c 763d a432 673b

up2.bias f4 [32]
0.0033667055 -0.08393011 -0.0119776325 0.031916775 0.045905262 -0.03501701 -0.015853815 0.0032907967
0.009431209 0.0056268806 -0.062320814 0.04055622 0.067305095 0.024346827 0.015234903 -0.019485278
-0.02467899 -0.018237224 0.03264156 0.057471853 -0.038828135 -0.014014386 -0.010910235 -0.0029552444
-0.034150682 0.017856762 -0.01909695 0.017034369 0.0755995 -0.02136086 -0.053899713 -0.025034083
00000000: f2a3 5c3b 8de3 abbd d53d 44bc 2abb 023d
00000010: 2807 3c3d ff6d 0fbd dcdf 81bc 68aa 573b
00000020: 5c85 1a3c b261 b83b 1c44 7fbd 471e 263d
00000030: 41d7 893d ff72 c73c d19b 793c 979f 9fbc
00000040: 982b cabc 3b66 95bc 28b3 053d 9b67 6b3d
00000050: 400a 1fbd 989c 65bc d8c0 32bc c6ac 41bb
00000060: 96e1 0bbd 5848 923c 3571 9cbc a98b 8b3c
00000070: e9d3 9a3d f8fc aebc f2c5 5cbd 4714 cdbc
